model/model.pth (torch, 17216 bytes, 4 tensors)

linear1.weight f4 [256, 11]
000000 4c 82 5e be 35 0c 98 3e 2d 1c 8a 3e 55 cd 19 3e
       -0.21729392 0.29696813 0.2697462 0.15019734
000010 8c 47 62 be c4 30 b9 bb b3 fb 3f 3e 69 d1 8b 3e
       -0.22097605 -0.0056515653 0.1874836 0.27308205
000020 e9 da 83 be bd 41 5a be 84 b4 80 be 80 f5 9a bc
       -0.25752953 -0.2131414 -0.25137722 -0.018915892
000030 68 73 0d bd b7 6d 28 be a3 42 19 be ea 57 e8 bd
       -0.034533888 -0.16448103 -0.14966826 -0.11344893
000040 00 3b db bd 85 3d 00 3e df e0 b2 3d b3 33 64 be
       -0.10704613 0.12523468 0.08734297 -0.22285347
000050 ae 94 1f be 18 9d 29 be 3a b5 17 3e ac ca db 3d
       -0.1558406 -0.16563833 0.14815226 0.10732016
000060 9e 6d 0a 3e 78 fe 1c 3e 82 7f 6c be 70 63 8a 3e
       0.13518378 0.15331447 -0.23095515 0.2702899
000070 27 82 43 3e f7 e8 8e 3e f1 0d 0b 3e 78 26 86 3d
       0.19092618 0.27912113 0.13579537 0.06550306
000080 1b 9f 50 bd da 26 7b bd 23 3f fb bd f5 f4 81 3e
       -0.050932985 -0.06131635 -0.12267902 0.253822
000090 b1 43 fe bd 14 e1 f9 3d ac aa 89 3d fa 3e 35 3e
       -0.12415255 0.12201133 0.06722006 0.17699805
0000a0 dd d2 47 bb ae ac 43 be a3 7b ce 3d 73 14 cd bd
       -0.0030490675 -0.19108841 0.100821756 -0.10013666
0000b0 2b be 79 3e 8a 56 9c bc 08 bd 60 be 20 2e 2a 3d
       0.2438895 -0.019084234 -0.2194711 0.041547894
0000c0 b8 1b ac 3c 71 15 5d 3e 51 58 2a 3d 42 f3 2b 3d
       0.021009311 0.2159021 0.04158813 0.041980036
0000d0 53 d3 23 be 2c 69 80 bd ba dd e6 bd 68 59 5c be
       -0.15998583 -0.0627006 -0.1127276 -0.21518481
0000e0 f9 42 25 bd ad 21 57 3e a6 cd 9c 3e a7 71 3b bd
       -0.040347073 0.2100894 0.30625647 -0.045762684
0000f0 86 4a 80 be 87 19 97 be 69 ca da 3d 5c 83 02 be
       -0.25056857 -0.29511663 0.10683138 -0.12745422
000100 7e c8 38 3d db db 97 3d 17 be 33 be 9f 87 8d be
       0.04511308 0.07414981 -0.17552982 -0.27642533
000110 4f 5d 34 bd e6 75 47 be 26 f8 19 3d 6a 08 84 be
       -0.0440343 -0.19478568 0.03759017 -0.2578767
000120 3c 79 52 3d ae 0a 17 bd 38 4b 1e be 25 c1 7c be
       0.05138515 -0.03687542 -0.15458381 -0.24683054
000130 5c be 80 3e 38 f0 42 3e b0 12 da bd e4 64 e8 3d
       0.25145233 0.19036949 -0.106480956 0.11347368
000140 9a e9 cc 3d 1f b3 25 3e b7 94 c2 bd 77 e9 6b 3e
       0.100054935 0.1618161 -0.09501021 0.23038279
000150 c7 71 cd 3d b1 ba f3 3d 4e 3e 4e be ce 5c 82 3e
       0.10031467 0.11900843 -0.20140955 0.2546143
000160 61 7f 22 3e 6a 04 8d 3e f1 44 eb bd 64 cd 1f be
       0.15868904 0.2754243 -0.11487759 -0.15605694
000170 1a 5d 08 be 5f 0a ec bd a4 f5 ca bd db 50 0c 3e
       -0.13316765 -0.11525416 -0.099101335 0.13702719
000180 77 15 f6 3d 44 00 1c 3e bb 08 0e be e8 19 70 3e
       0.12015813 0.15234476 -0.13870518 0.23447382
000190 db 50 8e be 98 08 6d 3d a0 93 f8 3d d8 e3 0a bd
       -0.27796063 0.057869524 0.12137532 -0.033908695
0001a0 1e 9e 23 be 6e 6b 2b 3e 00 61 43 be 52 4a 80 be
       -0.15978286 0.167402 -0.19079971 -0.25056702
0001b0 3a 52 fd bd 2c a1 83 bd 06 b1 ec bd bc a1 92 3e
       -0.12369199 -0.064272255 -0.11557202 0.2863902
0001c0 70 b8 38 be 1c 61 88 bd b3 5a 8a be a8 a5 1b be
       -0.18039107 -0.06659147 -0.27022323 -0.15199912
0001d0 82 a6 6e be c8 3d 16 bd 88 95 56 3d 50 2c 6f be
       -0.23305705 -0.036680013 0.052388698 -0.23356748
0001e0 08 af 33 be 88 19 27 3e 54 fe 33 bd e0 c7 23 bc
       -0.17547238 0.16318333 -0.043943718 -0.009996384
0001f0 ec 53 72 be 9a e2 a5 3d 51 c3 87 bd ee f8 0a be
       -0.23664826 0.080998614 -0.066290505 -0.13571522
000200 1c f3 1e bd 41 1a 06 3e c0 8e 55 bc 1f 41 a0 3e
       -0.038806066 0.13095953 -0.0130345225 0.31299683
000210 d6 07 09 3e a5 fd 28 3e 0a be b8 bd 04 3e 51 3e
       0.13381895 0.16503008 -0.09020622 0.20433813
000220 00 88 49 3d 7b dc cc 3d 60 6a 9e be 4e 46 ea bc
       0.049201965 0.10002991 -0.30940533 -0.028597977
000230 0e ff 89 3e b9 48 0f be 72 2f 3f be 99 b5 f9 bc
       0.26952404 -0.13992585 -0.18670443 -0.0304821
000240 a9 ca 1e be 4a 41 81 be d4 90 95 3e ef de 40 be
       -0.15506996 -0.25245124 0.29212058 -0.18835042
000250 98 86 04 be d9 72 18 3e 93 13 b7 3d 98 b8 25 be
       -0.12941968 0.14887561 0.0893928 -0.16183698
000260 54 c2 ed 3d 01 5f 42 3e 7b 60 13 3e 71 ff 45 3e
       0.11609331 0.18981554 0.14392273 0.19335724
000270 65 54 83 3d 4b 63 13 3d 59 7a 87 3e d9 ce 5b 3c
       0.06412581 0.035983365 0.2646053 0.013416016
000280 dc 84 7f 3d ce 8f aa 3d 84 7c 92 3d 23 97 3e be
       0.062382564 0.0832821 0.07152656 -0.18612342
000290 9a ca 95 3d 88 b4 06 3d 78 d4 45 3d e1 04 87 be
       0.07314034 0.03288701 0.04829833 -0.2637091
0002a0 e7 42 69 be 49 78 c6 3d 67 94 8c be 26 b4 44 3e
       -0.22779427 0.09690911 -0.27456972 0.19209346
0002b0 36 23 72 3e 81 63 33 bd 1e 57 25 be b8 e4 ae 3b
       0.23646244 -0.043796066 -0.16146514 0.005337324
0002c0 30 37 fa bc 5d 8c 0f be c7 97 f8 bd e8 bd 9f 3d
       -0.030543894 -0.14018388 -0.12138324 0.077998936
0002d0 49 c4 d4 3d da 35 28 be 62 9f c8 bd a5 b7 29 be
       0.10389001 -0.16426793 -0.09796025 -0.16573961
0002e0 2b 63 fc 3d 8c e0 3d be e1 dc 97 3e 77 8b 21 3d
       0.12323602 -0.18542689 0.29660705 0.039439645
0002f0 17 de 92 3e ac 04 91 bd 4c ac 10 bd 4b f2 74 3e
       0.28685066 -0.07080969 -0.035320565 0.23920552
000300 be 6b 3c 3e 6f 40 86 be 43 f0 08 be 72 b0 50 3e
       0.18400475 -0.26221034 -0.13372903 0.20379809
000310 c3 85 65 be 58 97 85 bd 3f fc 63 3e 64 46 3a be
       -0.22414307 -0.06523007 0.22264193 -0.18190914
000320 d7 6c 57 3e d8 41 cc bd 63 9b 03 bd b6 0c 95 3e
       0.21037613 -0.09973496 -0.03213061 0.2911126
000330 05 32 48 be 8f 06 0c be 0e 07 31 3e dc 89 ab 3c
       -0.19550331 -0.13674377 0.17287847 0.02093976
000340 c7 ae 58 3e 50 09 d0 3c 64 03 50 be 25 41 8d be
       0.21160422 0.025395066 -0.20313793 -0.27588764
000350 c0 16 86 bb 6c 58 5c 3e fe c0 17 3e 74 ec 6e 3e
       -0.0040920675 0.21518105 0.14819714 0.23332387
000360 66 9d 0e be 55 7e 84 be 78 ad 81 be 01 81 08 be
       -0.1392723 -0.25877634 -0.2532766 -0.13330461
000370 0f 5c 80 3d fb 80 98 be 65 28 6b 3d cb 3a ed 3d
       0.06267559 -0.29785904 0.05741157 0.115834795
000380 c8 12 46 be 2d 10 1e 3e b8 2d 8f bd 83 57 88 be
       -0.19343102 0.15435858 -0.06991142 -0.26629266
000390 b9 1c c7 bd 50 6d fd 3d 8c 3b be bd f1 90 3f 3e
       -0.09722275 0.12374365 -0.092887014 0.18707635
0003a0 33 16 03 be e8 f8 07 3e dd b5 d3 3d 7e 93 8f be
       -0.12801437 0.13278544 0.10337422 -0.28042215
0003b0 96 a1 4e bd c4 ce 34 be e1 0f 99 be e4 40 5f 3e
       -0.05044707 -0.17657 -0.29894927 0.21802098
0003c0 59 f0 82 be a6 63 94 3e 72 09 44 be 14 12 97 be
       -0.25573996 0.28982276 -0.19144228 -0.2950598
0003d0 34 9a bd bd 5d f6 3f be 74 29 99 be 04 8b 36 3e
       -0.092579275 -0.18746324 -0.2991444 0.17826468
0003e0 24 b2 86 3d fb fe 96 be 04 5a 88 3e 24 6c d3 3d
       0.065769464 -0.2949141 0.26631176 0.103233606
0003f0 97 c1 65 be c2 c8 89 3e 8d 0c 00 3d 41 a5 7d bd
       -0.2243713 0.2691098 0.03126197 -0.061925177

linear1.bias f4 [256]
000000 d2 9b 84 be 6d 4f a8 bd 12 01 7a 3e 64 07 91 3e
       -0.2590013 -0.08218274 0.24414471 0.2832595
000010 f0 be d2 3d 2b d7 3d 3e 61 7d 5b 3b ae 58 88 3d
       0.10290325 0.18539111 0.003349148 0.06657539
000020 da 88 42 3e 52 c2 96 be 45 ff 66 be 6c 88 58 be
       0.18997517 -0.2944513 -0.22558315 -0.21145791
000030 dc 09 6f 3d 53 e9 0e be aa 49 3f 3d 6b 6a 81 3e
       0.058359012 -0.13956194 0.04670111 0.25276503
000040 cd ca 8f be 67 2a ae bd ab b4 20 3e de 5a ec bd
       -0.28084412 -0.08504181 0.1569392 -0.11540769
000050 34 4c 0a 3b c1 b0 6a be c1 87 84 be f7 59 72 be
       0.002110255 -0.22918989 -0.25884822 -0.23667131
000060 18 78 8a be fc 1c 9a 3e 0c 83 84 3e ae 04 5d be
       -0.2704475 0.30100238 0.2588123 -0.21583816
000070 0e e9 95 be f7 f9 45 be ef 5b 77 3e dd ab 0e 3e
       -0.2927937 -0.19333635 0.24156164 0.13932748
000080 06 ce 95 bd 42 a8 29 3e 10 eb 89 be fd 1c 6d be
       -0.073146865 0.16568092 -0.2693715 -0.2315559
000090 39 57 1e be de 4a 28 be 5b 13 2e bd 77 ca 91 be
       -0.1546296 -0.1643481 -0.042498928 -0.2847478
0000a0 1e d7 f8 3d 5a 45 05 be 07 73 cb 3d 41 c3 d5 bd
       0.12150405 -0.13014737 0.09934049 -0.10437632
0000b0 48 08 75 3e 93 e0 8c be b6 d7 46 3e d2 31 52 be
       0.2392894 -0.27515087 0.19418225 -0.20526817
0000c0 de 1e cd bc 1e 3d 99 bd fe 63 8d 3e fc 59 99 be
       -0.025039133 -0.0748236 0.2761535 -0.29951465
0000d0 e1 5c 14 be ab 6b 61 bd 85 88 92 3e 52 6f 05 3e
       -0.14488555 -0.05503432 0.2861978 0.13030747
0000e0 be 3c 07 be 48 c1 8a 3e cb 30 ae bd 64 c0 a2 3d
       -0.13206765 0.27100587 -0.085054 0.07946852
0000f0 20 9a 2e 3e 03 1a 04 3e eb 40 42 3e 4e ab 67 3d
       0.17050982 0.12900548 0.18970077 0.056559853
000100 c3 c9 93 be d6 d2 f7 3d 99 59 65 be 7c d9 81 3e
       -0.2886487 0.12100761 -0.2239746 0.2536124
000110 a7 85 0d bd ea 16 ae 3d fd eb 0a 3e ec 45 68 3d
       -0.03455129 0.08500464 0.13566585 0.056707308
000120 e7 53 08 3e da ac ae 3d df 1c db 3c 96 e0 92 3b
       0.13313256 0.085290626 0.026747165 0.004482339
000130 27 56 62 3e af 19 75 3e 94 8e 83 be e6 05 59 3e
       0.22103177 0.23935579 -0.25694716 0.21193656
000140 e2 6b 98 bc 21 a5 88 3e 09 53 8d be 18 58 3d bd
       -0.01860613 0.26688483 -0.27602413 -0.04622659
000150 57 4a 5e be 2a ce 7e be f8 5a 64 3e c7 42 51 bd
       -0.21708046 -0.24883333 0.22300327 -0.051089074
000160 b9 a1 aa 3d 67 2c 8e 3e 00 76 04 3d b8 9d 86 be
       0.083316274 0.2776825 0.032339096 -0.26292205
000170 c0 e5 96 bd ce cb f0 bd 2c 6c c8 3d c3 b4 7c 3e
       -0.0736804 -0.11757623 0.09786257 0.2467833
000180 9e d7 30 3e cc fd 6d 3e 88 5f 35 3d 44 07 ef bb
       0.17269751 0.23241347 0.04428056 -0.0072945673
000190 53 76 93 3d e5 95 cf bd 73 db 8a be cc b3 9b bd
       0.07200303 -0.10136012 -0.2712055 -0.07602653
0001a0 4e 1a 6d 3d 55 1c 49 bd d2 81 76 3e dd 84 45 be
       0.057886414 -0.049099285 0.2407296 -0.19288965
0001b0 39 3d 2f 3e 13 7a eb 3d d0 cc 1f 3d 0a ef bf 3d
       0.17113198 0.11497893 0.039013684 0.09371765
0001c0 04 19 80 be ef 14 40 3e 3c 7c 91 be 3e fb 59 3e
       -0.25019085 0.18757986 -0.28415096 0.21287248
0001d0 98 72 5f be e3 9f 56 3e 2d 1a ac 3d ca e2 34 bd
       -0.21821058 0.2095943 0.0840343 -0.044161595
0001e0 a2 ac d9 3d 9d e1 99 be e0 56 fa 3c ba b1 8d 3e
       0.1062863 -0.30054942 0.030559003 0.27674657
0001f0 20 41 3b 3e de d5 1c be c3 b6 7a be cf 3f 6d be
       0.18286562 -0.15315959 -0.2448378 -0.23168872
000200 44 1e 87 bd b4 76 9c bd 2f bc 79 3d d4 dc dc bc
       -0.065975696 -0.07639828 0.06097048 -0.026960768
000210 01 a9 ff 3c 68 bf 67 3e ef 54 ac 3d cb c6 08 3d
       0.031208517 0.2263161 0.08414637 0.03339271
000220 e0 2a 9e bd ab db 0e 3d 5b a3 93 be 1f ec 52 3e
       -0.077230215 0.03487746 -0.28835568 0.20597886
000230 85 c2 fa 3d 13 65 8e 3e 20 1a a5 bd f5 ad 1f be
       0.12244133 0.27811489 -0.080616236 -0.15593703
000240 07 70 83 3c 42 a7 f7 bd 8a 94 d1 3d 54 bd 3b 3e
       0.01604463 -0.12092449 0.1023341 0.18333942
000250 bd fd 48 3d dc 6f fa bd da 6d 3d be 5d ee 65 3e
       0.04907011 -0.12228367 -0.18498936 0.2245421
000260 fe 5f 87 be 0b 08 3f be d3 3a 87 3d d7 58 e5 3d
       -0.26440424 -0.18655412 0.06603017 0.111985855
000270 a2 b8 46 3d e8 ed 24 be f0 04 71 3e b8 51 b3 bd
       0.048515923 -0.16106379 0.2353704 -0.08755821
000280 a6 0e 52 3e 58 09 3f be 7c e1 5f be 2b 6a 68 3e
       0.205134 -0.18655908 -0.21863359 0.2269675
000290 c9 f2 84 be be ed 37 3e c3 ec 25 bc 3e 04 30 3e
       -0.2596648 0.17961785 -0.010127249 0.17189118
0002a0 d5 11 4d be 45 40 c7 3d 52 88 06 be 54 86 43 bd
       -0.20026334 0.09729055 -0.1313794 -0.047735527
0002b0 f5 1b 1b 3d 4d b1 c8 3d dd 96 54 be e4 80 98 3e
       0.03786846 0.097994424 -0.20760675 0.29785836
0002c0 a3 1d 98 be 45 fa 6e 3c f4 4e f9 3d 9d b2 5e be
       -0.2971011 0.014586036 0.12173262 -0.21747823
0002d0 f6 d6 c8 bd 1f af 7e be d5 92 d1 3d 7e a4 08 be
       -0.098066255 -0.24871491 0.10233084 -0.13343999
0002e0 d0 3b 8e 3e 1a b8 53 3e 12 e0 54 bd ef f6 19 3e
       0.27780008 0.20675698 -0.051971503 0.15035604
0002f0 ef 94 00 3e 52 f0 f0 3d 3a fc 73 3e 15 51 5e 3e
       0.12556814 0.117645875 0.23826686 0.21710618
000300 52 80 2a 3e 5c 41 91 be 37 86 2e 3d 8c d5 2c be
       0.16650513 -0.28370178 0.042608466 -0.16878337
000310 1b 3e b0 bd d5 0f da bd 69 98 f2 3d 50 23 52 3e
       -0.08605596 -0.10647551 0.11845476 0.20521283
000320 89 91 44 3e 4a 70 13 be 88 75 34 be 13 5a cc bd
       0.19196142 -0.14398304 -0.1762296 -0.09978118
000330 60 8e 7d be 3d b7 cb bc 17 2a 58 3e 5d 9c 12 be
       -0.24761343 -0.024867648 0.21109806 -0.1431746
000340 16 39 98 be 1d 95 6e 3e 86 2b 49 be 76 03 77 3e
       -0.29731053 0.2329907 -0.19645509 0.24122414
000350 92 de 8c bd 3e e0 2b 3e 63 8a 9e 3b ce dc ea bd
       -0.068783894 0.1678476 0.0048382743 -0.114678964
000360 9a 09 8e be ed 7f af bd 18 1e 10 3e 2c 37 82 3e
       -0.277417 -0.08569322 0.1407398 0.25432718
000370 99 b9 e2 bd a4 f9 4d 3e ed ea c0 bd 05 31 e6 3d
       -0.11070556 0.20114762 -0.094198085 0.112398185
000380 a4 18 fc bc 83 c8 8c 3d ed 53 4d 3e 6f 1b 54 be
       -0.030773468 0.06874182 0.20051546 -0.2071359
000390 88 08 35 be fd 31 90 be e3 35 04 be 1a 43 6c be
       -0.17679036 -0.28163138 -0.12911181 -0.23072472
0003a0 93 b1 6d be 7d ab 5b be 0f 16 91 3e 1d 64 71 be
       -0.2321227 -0.21452136 0.28337142 -0.23573346
0003b0 f0 20 d4 bc a2 d2 3d 3c 35 3f 0d 3e 7e b4 04 be
       -0.025894612 0.011585863 0.13793643 -0.12959477
0003c0 91 4e 9c bd eb 56 32 3e d7 14 9e be aa cb d6 3b
       -0.07632173 0.17415969 -0.30875275 0.0065550404
0003d0 95 2b 5e be d9 b3 2e 3e 5d f1 ed bd 71 77 b9 3d
       -0.21696313 0.17060794 -0.11618302 0.09055985
0003e0 bb 1c 89 3d 07 30 f7 bd 11 ed 23 3e 10 19 2b 3e
       0.06694933 -0.12069707 0.16008402 0.1670878
0003f0 90 cb 38 3e ec c8 17 bd d0 34 dc 3d 77 2d 31 3e
       0.18046403 -0.03705685 0.10752261 0.173025

linear2.weight f4 [3, 256]
000000 e2 1b d8 3c 47 85 0c bc 83 9b 80 bd c3 c7 ba bc
       0.026380483 -0.008576698 -0.062796615 -0.022800332
000010 21 d2 5b 3d 77 16 ee 3c 81 c0 c2 3c 1f 31 0b 3d
       0.05366719 0.029063446 0.023773434 0.033982392
000020 2e cc 8b 3c 74 dc 5c bd a0 f2 03 bc 59 6f b6 bd
       0.017065134 -0.053921178 -0.008053452 -0.08907957
000030 7c a9 60 bd e3 d6 55 3d ee 34 82 bb 2b fa 22 3d
       -0.054849133 0.052206885 -0.003973595 0.03978936
000040 00 10 44 3d d7 fa cf 3c e2 9d ca bc 68 69 72 bc
       0.04786682 0.025388164 -0.024733488 -0.014795639
000050 bf 27 63 3d 89 1d a2 bd de 83 35 3c 45 da c9 3c
       0.055457827 -0.0791579 0.011078803 0.024640212
000060 54 25 9b bc 9b 55 e8 3a 79 f5 04 3d ca b0 f9 3b
       -0.018938698 0.0017725708 0.032460663 0.007619952
000070 de 52 3a bd d2 fe 4b 3d 5a ba 36 3d b4 44 6f bd
       -0.045489185 0.049803562 0.044611312 -0.05841513
000080 3a d7 53 3d 90 2a 7a bd 9d e3 1e 3d fd 0a 08 bd
       0.051718928 -0.061075747 0.038791288 -0.033213604
000090 ed eb 9c ba c4 f8 28 3d a2 47 81 bd 28 e2 a9 3c
       -0.0011972167 0.041252866 -0.06312491 0.020737723
0000a0 eb 3b fc bb 46 7c 74 bd 83 f3 71 bd 7e a6 6e bd
       -0.0076975725 -0.05968883 -0.05907012 -0.058264248
0000b0 db 16 84 bd a1 2a 3f 3d 3e 6a 9d 3c cd 3c c4 bc
       -0.06449672 0.046671513 0.0192157 -0.023954773
0000c0 b4 09 3c 3c 00 95 fc 3b 0b 90 4d 3d a4 df 2c bd
       0.011476923 0.007708192 0.0501862 -0.042205468
0000d0 66 bd 4c bc 7e b7 04 bc 3e 36 9a bc d4 95 04 bc
       -0.012496328 -0.008100389 -0.018824693 -0.008092362
0000e0 31 87 e2 3c 44 a7 41 bd 1e 85 62 3d 26 9b ea 3c
       0.027652355 -0.047278658 0.05530273 0.028638434
0000f0 c0 a2 9a bd 85 61 41 bd 2b 4d 41 3b 66 38 72 bc
       -0.07550573 -0.047212142 0.0029495459 -0.014783954
000100 7c a6 52 bc e0 44 08 bd 76 71 45 3c 91 8e a2 bb
       -0.012857076 -0.03326881 0.012050977 -0.004960843
000110 d9 06 6b 3c 19 fe 45 3d 26 71 cf 3b 1b ce a7 bb
       0.014344894 0.04833803 0.006330627 -0.0051210052
000120 1f ab 1f bd 5e b5 d5 bc 67 f7 be 3c 7b 78 55 bd
       -0.038981553 -0.02608746 0.02331133 -0.052116852
000130 73 13 d5 3c 84 73 a1 bc d2 6c 0e 3d 36 88 a9 3b
       0.02601025 -0.019708402 0.034771748 0.0051737083
000140 e5 b1 8a bd 7b 89 c7 3b e4 cf 6f bb 2e 2b f9 39
       -0.06772212 0.006089387 -0.0036592418 0.00047525152
000150 dc 5e a5 bc 92 5b 3b bd ab 0a 6a ba 9d 1f 3f bb
       -0.020186834 -0.045741625 -0.0008927981 -0.002916313
000160 1d 7c 48 bc e1 ee ab bb d0 0c de 3c 39 ec 16 bd
       -0.012236622 -0.0052469824 0.027105719 -0.036846373
000170 f8 9e 48 bc da 29 67 3d b5 cc 79 bc ee 88 d7 bc
       -0.012244932 0.056436397 -0.01524656 -0.02631041
000180 96 f4 3b 3d fb da 49 bd 67 1c 28 bd 0b 2b 5d 3b
       0.045887552 -0.0492811 -0.04104271 0.003374758
000190 07 73 52 3a a1 88 ec 3c 80 8a 7a ba 8e 7a 1d 3d
       0.00080280047 0.028873743 -0.0009557381 0.038446955
0001a0 5e 46 d0 bc a3 22 2f 3d 82 3b 32 bd 83 c0 e2 3c
       -0.025424179 0.04275764 -0.043513782 0.027679687
0001b0 2a da b6 bb a7 af 15 bd 73 c8 2f bd 9e ea 32 bc
       -0.0055802064 -0.03654447 -0.042915773 -0.010920195
0001c0 f4 71 72 bd ca 94 34 3c 75 89 cf bc 03 be 6a 3d
       -0.059190705 0.011021802 -0.0253341 0.057310116
0001d0 58 e5 b1 bc fc c5 0c 3d e3 0a 83 bd 06 86 c7 ba
       -0.021715805 0.0343685 -0.06398561 -0.0015222437
0001e0 08 f8 07 bd 37 4a 06 3a 36 4a 86 3c eb 08 04 3d
       -0.033195525 0.0005122753 0.016392808 0.032235067
0001f0 c7 5d 4d 3d 34 99 b1 3c 89 18 23 3c c2 c2 40 bd
       0.05013826 0.021679498 0.00995458 -0.047060736
000200 fc 1f da b9 d1 52 ac 3a cd f1 f6 bc 27 3e f8 3c
       -0.0004160403 0.001314724 -0.030144596 0.030303074
000210 b1 49 38 bb 00 10 72 bc 12 27 7d 3d d7 b2 b2 3c
       -0.0028120095 -0.0147743225 0.06180484 0.021813793
000220 c4 3f 03 bd d0 d1 99 bc f8 04 40 3d d9 d4 8d bd
       -0.032043234 -0.018776804 0.04687974 -0.06925363
000230 2c 5b 90 bd 42 82 71 bd 4a 5b 27 bd e5 2f c0 3c
       -0.0704864 -0.058962114 -0.040858544 0.023460338
000240 6d 47 8a 3a 6d 49 e3 bc a9 b3 06 bd 9c 72 1f bd
       0.0010549851 -0.027744973 -0.03288618 -0.03892766
000250 e6 68 73 bd ce 61 3d bd ac b5 86 3c 8e 18 79 bc
       -0.05942621 -0.046235852 0.01644405 -0.015203608
000260 3d 6a 0f bc dd 54 98 3c c2 cf 32 3d a3 5b 07 3b
       -0.0087533565 0.018595153 0.043655165 0.0020653985
000270 f1 6d f3 bc 10 6d 13 3d b0 c5 85 bd d0 93 c1 bc
       -0.02971551 0.035992682 -0.065318465 -0.023630053
000280 90 53 0a bd 00 55 85 bc 3a 2d 84 bc 4c de 13 bd
       -0.033771098 -0.016275883 -0.016134847 -0.03610067
000290 be aa 4a 3d 72 83 02 bd 31 0d 3a 3d 8b b3 22 3d
       0.04947924 -0.031863637 0.045422737 0.039722007
0002a0 77 58 89 bc 1b 89 96 ba 07 64 d2 3b e0 7c 58 bd
       -0.016765816 -0.0011484952 0.0064206156 -0.052853465
0002b0 3f f0 67 3b 20 8c 94 3c bc 23 1c 3d 24 69 0c bc
       0.0035391 0.018133223 0.038120016 -0.008569989
0002c0 4a 66 6f 3d 6a 89 8b 3c da d7 0c 3d 96 fa 1c 3d
       0.05844716 0.017033298 0.03438554 0.038324915
0002d0 f3 c5 b9 bc a3 ee b3 bd 8e 26 df 3c b6 c0 01 bd
       -0.022677397 -0.08785751 0.027240064 -0.031677924
0002e0 7c a0 a3 3c b9 96 87 3c ee d1 43 3d 84 07 50 bd
       0.019973986 0.016551362 0.047807626 -0.050788417
0002f0 78 62 18 3d d6 00 61 bd 31 2f b8 3c 85 9d 30 bd
       0.037203282 -0.054932438 0.02248344 -0.043118972
000300 0a c8 79 3d 75 ab c2 3c 17 3a 24 bc e6 b5 b3 bc
       0.060981788 0.023763398 -0.010023615 -0.021937322
000310 04 e5 f7 3c 1b c7 c7 3c f5 1d 29 3d 2d c6 05 bd
       0.03026057 0.024386933 0.041288335 -0.0326597
000320 6b 57 81 3c 10 7c 94 bd 5b f3 fb 3c aa 49 06 3d
       0.015788754 -0.072502255 0.03075569 0.032785095
000330 c5 3a 51 bb a8 6d 24 3d 02 65 92 bd 21 c7 6c bd
       -0.0031925899 0.04014364 -0.07148172 -0.05780709
000340 7b 04 45 3d ba ac 35 3d 44 71 7f bc 92 76 b1 bc
       0.048099976 0.044354178 -0.0155909695 -0.021662984
000350 0f 2a 62 3b a2 b2 82 3c e3 ba 4a 3d 85 b4 af bd
       0.0034509932 0.01595432 0.049494635 -0.08579353
000360 c4 5a 3e 3b fa 62 f8 bc 60 fa 75 bb 3e 79 85 3d
       0.00290458 -0.030320633 -0.0037533268 0.06517266
000370 91 cb 33 3d 62 e3 92 3c 09 ef 1d bd 90 bc b2 bc
       0.043895308 0.01793069 -0.03855804 -0.02181843
000380 76 e5 2e bd 2a b3 85 3c ba 79 5a bd 0a 2d 95 3c
       -0.0426993 0.016320784 -0.053338744 0.018209953
000390 31 d4 bd bc 8b 76 b1 3b d1 61 a3 3c 0a 8b 1c 3d
       -0.02317247 0.0054157428 0.019944103 0.038218535
0003a0 85 da 52 bd 15 84 a8 3c 41 5b 30 bd ed 15 7a bc
       -0.051477928 0.020570794 -0.043055777 -0.015264017
0003b0 c8 de 1d bc 2d 79 c2 bc 00 d3 6e 3d df e1 21 3d
       -0.009635635 -0.023739422 0.058306694 0.039522048
0003c0 01 1f 88 bc 0c 79 d2 bc b0 64 3e 3d 42 41 9d 3c
       -0.016616346 -0.025692485 0.04648274 0.019196156
0003d0 ff f6 f0 bb 95 03 72 bd 17 49 e8 3b 6e 2c 2a 3d
       -0.007353663 -0.059085447 0.007088791 0.041546278
0003e0 83 e0 0e 3d 98 ab d1 3c 54 7f 38 3c a6 4b 3a bd
       0.03488208 0.025594518 0.011260826 -0.0454823
0003f0 05 7c 31 3a b9 9f 20 bc b8 70 19 bc d4 d2 2d 3d
       0.00067704945 -0.009803706 -0.009365253 0.04243739

linear2.bias f4 [3]
000000 60 c7 ad bc a7 3f 8d bc 1b 61 6e bb
       -0.021213233 -0.017242266 -0.0036373797
